2nd Year/Semester 2/AI/Lab_7/Assignment7/example/myNet.pt (torch, 1743 bytes, 3 tensors)

hidden.weight f4 [10, 1]
000000 80 cf ed bc b2 00 69 3f e8 11 0d 3f 7e c8 6f bf
       -0.029029608 0.91016686 0.5510545 -0.936653
000010 6e 7a 8a 3f 20 7c 41 bf 8b 7e 3d bf e6 b1 71 3f
       1.0818613 -0.75580025 -0.74021214 0.94412076
000020 88 7c 39 3e 71 42 d1 3e
       0.18113911 0.40871003

hidden.bias f4 [10]
000000 98 e8 bb be 5b e9 93 bd cb 70 db be 72 1c 09 bf
       -0.36700892 -0.072222434 -0.42859492 -0.5355903
000010 7f 81 29 bf 14 76 6c bf 4d e4 72 3e 4f a3 37 3e
       -0.6621322 -0.9236767 0.23719902 0.17933391
000020 3c 78 b8 be e2 43 d1 3e
       -0.36029232 0.40872103

output.weight f4 [1, 10]
000000 87 e1 95 3e a9 d8 ff 3e 9d b0 7e 3d 04 4c 5f 3f
       0.29273626 0.49969986 0.06218015 0.87225366
000010 6e 5c 0e 3f 20 c8 6d bc d5 df 39 3f aa e8 36 3f
       0.55609787 -0.014513046 0.72607166 0.7144877
000020 82 43 19 3e fe 14 02 bf
       0.14967158 -0.5081328
